Model: "functional_3"
__________________________________________________________________________________________________
Layer (type)                    Output Shape         Param #     Connected to                     
==================================================================================================
input_audio (InputLayer)        [(1, 1, 20)]         0                                            
__________________________________________________________________________________________________
tf_op_layer_ExpandDims (TensorF (1, 1, 20, 1)        0           input_audio[0][0]                
__________________________________________________________________________________________________
stream (Stream)                 (1, 1, 18, 64)       640         tf_op_layer_ExpandDims[0][0]     
__________________________________________________________________________________________________
stream_1 (Stream)               (1, 1, 16, 64)       61504       stream[0][0]                     
__________________________________________________________________________________________________
stream_2 (Stream)               (1, 1, 14, 64)       61504       stream_1[0][0]                   
__________________________________________________________________________________________________
stream_3 (Stream)               (1, 1, 12, 64)       61504       stream_2[0][0]                   
__________________________________________________________________________________________________
stream_4 (Stream)               (1, 1, 11, 128)      82048       stream_3[0][0]                   
__________________________________________________________________________________________________
stream_5 (Stream)               (1, 1, 11, 64)       41024       stream_4[0][0]                   
__________________________________________________________________________________________________
stream_6 (Stream)               (1, 1, 11, 128)      24704       stream_5[0][0]                   
__________________________________________________________________________________________________
stream_7 (Stream)               (1, 1408)            0           stream_6[0][0]                   
__________________________________________________________________________________________________
dropout (Dropout)               (1, 1408)            0           stream_7[0][0]                   
__________________________________________________________________________________________________
dense (Dense)                   (1, 128)             180352      dropout[0][0]                    
__________________________________________________________________________________________________
stream/input_state (InputLayer) [(1, 3, 20, 1)]      0                                            
__________________________________________________________________________________________________
stream_1/input_state (InputLaye [(1, 5, 18, 64)]     0                                            
…
